app/src/main/ml/model.tflite (tflite, 3820 bytes, 3 tensors)

sequential/dense_1/MatMul;sequential/dense_1/BiasAdd f4 [6]
2.2699504 -0.6103852 -0.1583189 -0.6401412 -0.6793791 -1.2117635
00000000: de46 1140 3442 1cbf 5a1e 22be 4be0 23bf
00000010: caeb 2dbf 111b 9bbf

sequential/dense/MatMul1 f4 [6, 75]
-0.014304883 -0.5389898 0.09964555 0.23954676 -0.32770535 -0.010519664 -0.2240565 -0.25926945
0.11035732 -0.054904517 -0.16940732 -0.17401236 0.25727472 -0.603162 0.13701577 0.1359542
-0.3350054 -0.25705767 -0.15065403 -0.18090765 0.48009026 -0.15889949 0.108037055 0.28780183
0.2708319 0.31348553 0.2437946 -0.4342209 -0.3219953 0.33267596 0.7441787 -0.5598063
0.8404533 -0.15064105 -0.5527452 0.4647673 0.56405073 -0.6134285 0.33598685 -0.59565514
-0.8251626 0.2829146 0.38606513 -0.82385266 0.352257 0.2500694 0.18152398 -0.08758425
0.27490312 0.13138138 -0.17945185 0.056545116 -0.864854 -0.21853994 0.15947865 -1.154844
-0.22397675 -0.19926193 -0.37201038 -0.6783551 0.22960053 -0.26799628 0.05105206 -0.13167837
-0.3621153 -0.6878413 0.28797486 -0.5776923 -0.07530569 -0.12350915 -0.18826906 0.11323075
-0.096424945 -0.28908995 0.91585 0.20835096 0.017055461 0.11778247 -0.29185876 0.27945703
-0.018866416 0.3465189 0.050334156 -0.44571114 -0.11703122 0.10292383 0.343597 0.1656238
0.3146066 0.19050536 -0.55604786 0.3021925 -0.599511 0.6241948 0.10761527 -0.5993848
-0.7008886 0.47348705 -0.16427894 0.100107566 -0.08953394 -0.39177832 -0.2551344 0.25335637
0.14542139 0.2284444 0.23307818 0.025150102 -0.60878587 0.47132778 -0.13369757 0.2495504
-0.1014476 0.18064944 -0.33249038 0.5015064 0.036493372 0.124994114 0.26767302 -0.019164287
-0.6210713 0.024737054 0.0057291295 0.6214621 -0.25919262 -0.13968632 -0.73936594 0.34721926
0.57316476 0.30310667 0.38346663 0.35125005 -1.040188 0.42272133 0.087661445 0.67267627
0.44842267 -0.053741653 -0.5569967 0.28724343 0.18070151 0.7279087 0.47547665 0.130298
-0.6870965 -0.12361083 0.26508525 0.952917 -0.16464658 0.024314553 0.028583739 -0.1659812
-0.74613225 0.41398242 -0.13721254 -0.8159296 -0.0783088 0.121779606 -0.3630442 0.10629438
0.10360908 -0.7660285 0.050210312 0.19679357 -0.9802477 0.48059535 0.059291933 -0.75811505
-0.74501365 0.16697368 -0.17754611 0.4145754 0.9970175 0.62197804 -0.27812946 0.5560108
0.5975914 0.48039088 0.8432881 0.864929 -0.2890614 0.7300131 0.47451812 0.40248933
0.9287465 0.7762272 -0.10712952 0.46587253 0.6819446 0.20060474 0.4392508 0.58421755
-0.07718952 0.73010975 0.29253733 0.69599813 -0.12285667 0.05588991 -0.80563974 0.37419277
0.17592596 0.030874033 -0.29940957 -0.04698567 0.2792725 -0.63255364 0.33126116 0.35167772
-0.26111943 0.08506382 -0.2667553 -0.28650278 0.28470007 0.40117714 0.13623907 -0.082465954
-0.35776103 0.034573346 0.5347506 0.31977695 0.10961183 -0.46134925 -0.121545754 0.08940317
0.11171338 -0.074281454 -0.14167105 0.15846607 -0.26219276 0.06825393 0.023027666 0.17852685
-0.047367144 -0.034985665 0.27832556 -0.1285529 0.27536565 0.2935013 -0.039095324 0.42914727
-0.36053655 -0.06720003 -0.34876972 0.35607147 0.09934269 -0.29847807 -0.18250778 0.5736618
0.1979908 0.08939926 0.14810647 0.0657096 -0.2813744 -0.52564335 0.14529833 0.71125114
00000000: 075f 6abc 3cfb 09bf f712 cc3d bf4b 753e
00000010: ffc8 a7be ab5a 2cbc 116f 65be f7be 84be
00000020: 0503 e23d 8fe3 60bd 1d79 2dbe 4c30 32be
00000030: 83b9 833e d368 1abf dd4d 0c3e 9437 0b3e
00000040: d485 abbe 109d 83be 0d45 1abe db3f 39be
00000050: 64ce f53e 8cb6 22be 8842 dd3d c35a 933e
00000060: 7baa 8a3e 2d81 a03e 4ba5 793e 3452 debe
00000070: 91dc a4be 8154 aa3e 7f82 3e3f 774f 0fbf
00000080: f327 573f a641 1abe b680 0dbf fbf5 ed3e
00000090: a165 103f a609 1dbf 7806 ac3e db7c 18bf
000000a0: db3d 53bf 2fda 903e 54aa c53e 02e8 52bf
000000b0: 085b b43e 1909 803e 6ce1 393e 5f5f b3bd
000000c0: 1ac0 8c3e d788 063e 3ac2 37be da9b 673d
000000d0: 1267 5dbf efc8 5fbe 5f4e 233e eed1 93bf
000000e0: 295a 65be 520b 4cbe 2578 bebe aea8 2dbf
000000f0: 671c 6b3e cf36 89be f71b 513d b2d6 06be
00000100: 2d67 b9be 5e16 30bf 7171 933e a4e3 13bf
00000110: df39 9abd 5ef2 fcbd 9bc9 40be 86e5 e73d
00000120: 717a c5bd 9903 94be 2575 6a3f f459 553e
00000130: e5b7 8b3c f037 f13d 836e 95be fe14 8f3e
00000140: be8d 9abc ed6a b13e 302b 4e3d 4034 e4be
00000150: 10ae efbd bbc9 d23d f2eb af3e 4999 293e
00000160: 1e14 a13e d613 433e 2759 0ebf fab8 9a3e
00000170: 8e79 19bf 3bcb 1f3f 6565 dc3d 4871 19bf
00000180: 6f6d 33bf e56c f23e bd38 28be 3205 cd3d
00000190: 925d b7bd 2b97 c8be faa0 82be edb7 813e
000001a0: 58e9 143e 54ed 693e 0cac 6e3e 9607 ce3c
000001b0: 64d9 1bbf e051 f13e 04e8 08be 248a 7f3e
000001c0: c2c3 cfbd 2bfc 383e 2e3c aabe b962 003f
000001d0: 137a 153d eafc ff3d 700c 893e 6cfe 9cbc
000001e0: 87fe 1ebf 5da5 ca3c 6cbb bb3b 2418 1f3f
000001f0: e5b4 84be ee09 0fbe 1647 3dbf b9c6 b13e
00000200: edba 123f cc30 9b3e bd55 c43e 0cd7 b33e
00000210: e124 85bf ee6e d83e d887 b33d 8334 2c3f
00000220: a897 e53e 3520 5cbd 5697 0ebf 9211 933e
00000230: d109 393e 3958 3a3f ad71 f33e d76c 053e
00000240: 8ee5 2fbf ad27 fdbd 41b9 873e 5ef2 733f
00000250: 1d99 28be 502f c73c 7228 ea3c faf6 29be
00000260: 8602 3fbf 81f5 d33e 7281 0cbe c3e0 50bf
00000270: 5d60 a0bd 9667 f93d eee0 b9be deb0 d93d
00000280: ff30 d43d 721a 44bf 54a9 4d3d 4184 493e
00000290: 83f1 7abf 9810 f63e 19dc 723d d413 42bf
000002a0: 37b9 3ebf 26fb 2a3e a6ce 35be 3a43 d43e
000002b0: 8a3c 7f3f f439 1f3f fc66 8ebe b956 0e3f
000002c0: c0fb 183f cbf5 f53e bbe1 573f fd6b 5d3f
000002d0: dbff 93be 23e2 3a3f 0af4 f23e 1513 ce3e
000002e0: 55c2 6d3f d3b6 463f b966 dbbd d886 ee3e
000002f0: ec93 2e3f 546b 4d3e 7be5 e03e 488f 153f
00000300: 8a15 9ebd 79e8 3a3f 74c7 953e ef2c 323f
00000310: 479c fbbd d1ec 643d 683e 4ebf 3296 bf3e
00000320: ef25 343e 8aeb fc3c 364c 99be 0c74 40bd
00000330: cefc 8e3e 09ef 21bf 109b a93e 1a0f b43e
00000340: 72b1 85be f135 ae3d 2794 88be 7eb0 92be
00000350: 35c4 913e 1767 cd3e 4182 0b3e e9e3 a8bd
00000360: 742c b7be c89c 0d3d 6ae5 083f ceb9 a33e
00000370: 2b7c e03d f835 ecbe fbec f8bd 0219 b73d
00000380: fcc9 e43d e020 98bd 3712 11be ee44 223e
00000390: 213e 86be b7c8 8b3d 84a4 bc3c becf 363e
000003a0: 0d04 42bd 214d 0fbd b080 8e3e 5fa3 03be
000003b0: bafc 8c3e cd45 963e 6b22 20bd 31b9 db3e
000003c0: 3f98 b8be 2ba0 89bd f291 b2be 004f b63e
000003d0: 2e74 cb3d 1ed2 98be 52e3 3abe 80db 123f
000003e0: 1abe 4a3e f616 b73d 39a9 173e c192 863d
000003f0: 4e10 90be 9090 06bf 16c9 143e 8e14 363f

sequential/dense_1/MatMul f4 [6, 6]
1.6747427 -0.31601226 0.37852332 0.9202347 -0.03854807 0.41000426 -1.1317846 0.9863871
0.5511706 -0.60176635 0.8186052 -1.2978082 0.36663163 -0.46209326 -0.66968733 -0.4954325
0.20649464 -1.096299 -1.3826016 -0.77727383 1.7056632 -1.4107745 1.0375578 1.4214833
0.30553505 1.3292499 -0.89620936 1.110585 -1.5760901 0.3311955 -0.32528496 -1.3817918
-0.66788316 -1.2519243 -0.11101332 1.716157
00000000: f85d d63f 5ccc a1be cfcd c13e 8094 6b3f
00000010: 95e4 1dbd 14ec d13e 51de 90bf dd83 7c3f
00000020: 8419 0d3f 5c0d 1abf 1c90 513f 941e a6bf
00000030: 24b7 bb3e 7d97 ecbe a170 2bbf 54a9 fdbe
00000040: 5573 533e 8753 8cbf 17f9 b0bf 6bfb 46bf
00000050: 2c53 da3f 4294 b4bf b2ce 843f 2af3 b53f
00000060: 176f 9c3e dc24 aa3f fa6d 65bf a627 8e3f
00000070: 52bd c9bf 7592 a93e c08b a6be 8ede b0bf
00000080: 64fa 2abf 0e3f a0bf f45a e3bd 08ab db3f
